testing/data/het_weights.pkl (torch, 347786 bytes, 52 tensors)

encoder.main.0.weight f4 [8, 3208]
0	0xbbd7585b	-0.006571812
1	0xbbb1a77a	-0.005421576
2	0x3ba1cc1e	0.0049376627
3	0xbc17fec8	-0.009277053
4	0xbc8f0eea	-0.017463166
5	0xbb8c04e8	-0.004273046
6	0xba19a0ee	-0.0005860467
7	0xba0010db	-0.0004885324
8	0xbbd36f5e	-0.006452485
9	0x3c2a0432	0.010376977
10	0xbb8d0714	-0.0043038223
11	0x3c8a18cc	0.016857527
12	0x3c82b948	0.01595749
13	0x3bfb1bef	0.007663242
14	0x3c6a1200	0.014286518
15	0xbc6c2ee9	-0.014415481
16	0xbbabf764	-0.005247997
17	0x3c870cd3	0.016485607
18	0x3c45ac82	0.012065055
19	0x3bd736fa	0.006567833
20	0xbbbf4044	-0.0058365185
21	0x3bbe43f0	0.0058064386
22	0x3bbebde8	0.0058209784
23	0xbbc9057b	-0.0061346865
24	0xbc85648f	-0.016283302
25	0x3c4879e8	0.012236096
26	0x3be12b46	0.0068716137
27	0xbc001e0b	-0.007819663
28	0xbc7aa73d	-0.015298662
29	0xbb23bd48	-0.0024984647
30	0x3bef0921	0.0072947894
31	0xbc3baa33	-0.011454153
32	0xbbb06324	-0.0053829122
33	0x3c86cd08	0.016455188
34	0xbc193a83	-0.009352329
35	0x3bd1baba	0.0064004334
36	0xbc48562c	-0.012227576
37	0xbba874d8	-0.005140882
38	0x3c29289c	0.010324623
39	0x3c926f52	0.017875347
40	0x3bad50f5	0.005289192
41	0x3c9416aa	0.018077213
42	0x3a9724e3	0.0011531379
43	0x3adeaa07	0.0016987928
44	0xbb84922a	-0.0040457444
45	0x3c8aa050	0.016922146
46	0xbc6303c9	-0.013855883
47	0xbc3678d8	-0.01113721
48	0x3bbc526e	0.005747131
49	0xbbe430df	-0.0069638337
50	0x3c8fab26	0.017537665
51	0xbc642cf1	-0.0139267305
52	0x3c1126ce	0.008859349
53	0xba90ec87	-0.0011056819
54	0x3c8df3f1	0.017328234
55	0x3aeb4da3	0.0017952215
56	0xbc63a6d0	-0.013894752
57	0x3b400962	0.0029302468
58	0x3c014cba	0.007891828
59	0xbc6fc000	-0.014633179
60	0x3c38ffa5	0.011291419
61	0x3bb326d0	0.0054672733
62	0x3b855200	0.004068613
63	0x3c858e7d	0.016303295
64	0x3bcd298c	0.0062610563
65	0xbc4dde64	-0.012565229
66	0xbc87b341	-0.016564967
67	0xbbb5bfd6	-0.0055465503
68	0xbc3a22a9	-0.011360803
69	0xbc46dd06	-0.012137657
70	0xbc2a9434	-0.010411311
71	0xb9dd7908	-0.0004224258
72	0xbbdc8c35	-0.006730581
73	0x3c40c13e	0.0117648225
74	0xbc2c392f	-0.0105116805
75	0xbb6334ae	-0.003466885
76	0xbc872364	-0.016496368
77	0x398be0e2	0.00026679697
78	0x3c221e84	0.009894971
79	0x3b3892ea	0.002816374
80	0x3aa0ea22	0.0012276808
81	0xbb93800c	-0.0045013484
82	0x3bfad3b6	0.0076546324
83	0x3c3368be	0.010950265
84	0x3c643ee6	0.013931012
85	0x3c33eb86	0.010981446
86	0x3c7df79e	0.015500931
87	0x3c6abf84	0.014327887
88	0xbc5f4597	-0.013627431
89	0xbbc45f43	-0.0059928014
90	0xbbe3fcaf	-0.0069576125
91	0x3bc7635b	0.006084842
92	0xbc1f2619	-0.009713673
93	0x3c34778e	0.011014832
94	0x3b51a069	0.003198648
95	0xbc4bad68	-0.01243148
96	0x3c7cc0c7	0.015426821
97	0x3bccca57	0.0062497067
98	0xbc473e52	-0.012160854
99	0xbc80f1ae	-0.015740242
100	0xbc594a83	-0.013262394
101	0x3c8490cd	0.016182328
102	0xbc2051fc	-0.009785172
103	0xbc15db14	-0.009146471
104	0x3b2165ca	0.0024627321
105	0xbb3240a7	-0.002719918
106	0xbc43fd51	-0.011962251
107	0xbc32881e	-0.010896711
108	0x3c6ce2ca	0.014458368
109	0x3bda8ef4	0.0066698734
110	0xbc794f95	-0.015216728
111	0x39007493	0.00012250459
112	0xbc1b06b8	-0.009462051
113	0x3c52cf6d	0.012866837
114	0x3c2e53cd	0.010640097
115	0xbc8f4730	-0.01749
116	0x3ac37d0a	0.0014914584
117	0xbc47e239	-0.012199932
118	0xbc3c48b9	-0.011491948
119	0xbb980a08	-0.0046398677
120	0xbbab21d0	-0.0052225366
121	0xbc59495a	-0.013262117
122	0xbc59dd2f	-0.013297363
123	0x3c47b376	0.012188783
124	0x3c82b67e	0.01595616
125	0xbc54b7ac	-0.012983244
126	0xbb86e260	-0.0041163415
127	0x3afa0242	0.0019074159
128	0xbc45c78e	-0.012071503
129	0x3bdbb8ac	0.006705364
130	0xbbdb34e8	-0.0066896565
131	0xbc5eecc1	-0.013606251
132	0x3ba25feb	0.004955282
133	0x3c86dcd8	0.016462728
134	0xbc863dca	-0.016386885
135	0x3b2dec10	0.002653841
136	0x3bba055d	0.005676909
137	0xba07cc49	-0.0005180282
138	0x3bba1ad0	0.005679466
139	0x3c81dd56	0.015852612
140	0xbc476da5	-0.012172137
141	0xbc5e2b69	-0.0135601545
142	0xbc2efcf3	-0.010680425
143	0xbbbfa269	-0.005848218
144	0x3c50844d	0.012726855
145	0xbbbf7fdd	-0.0058441
146	0xbc76c254	-0.01506098
147	0x3a788b60	0.0009481218
148	0x3b8c5139	0.0042821434
149	0xbc82234b	-0.01588597
150	0x3bbaface	0.005706168
151	0x3c531b43	0.012884918
152	0x3c769d3a	0.015052134
153	0x3c2d2c57	0.0105696535
154	0x3c7f1a8b	0.015570293
155	0xbc2ff549	-0.010739633
156	0xbc8085ff	-0.015688894
157	0xbbae51d3	-0.005319813
158	0x3ba2b8d7	0.0049658823
159	0xbbcc36d8	-0.006232124
160	0x3a6e67e6	0.00090944616
161	0x3c297ff7	0.010345451
162	0xbc69918a	-0.014255891
163	0x3b3d0a87	0.0028845386
164	0xbc797f92	-0.015228169
165	0x3c80a6d3	0.015704548
166	0xbb93effc	-0.0045146924
167	0xbc08e393	-0.008355039
168	0xbc4667a8	-0.0121096745
169	0xbbb4eb88	-0.0055212416
170	0x3bc6f55d	0.00607173
171	0x3c624cb3	0.013812232
172	0x3c8db350	0.017297417
173	0xba2fa57c	-0.00067003793
174	0xbac0dcfb	-0.0014714295
175	0x3c84ed4b	0.016226431
176	0x3c8cf40f	0.01720622
177	0x3c2faa5f	0.010721772
178	0x3ac7e482	0.0015250596
179	0xbc88ea06	-0.016713154
180	0xbbd56b40	-0.0065130293
181	0xbc6c3f75	-0.014419426
182	0x3c3131b9	0.010815077
183	0xbc4da113	-0.01255061
184	0x3c5cb362	0.013470503
185	0xbad402c9	-0.0016175146
186	0xbc516c3e	-0.012782155
187	0xbc52ebb5	-0.01287358
188	0xbac3a5e7	-0.0014926762
189	0xbbeb5dd4	-0.007182816
190	0xbbccab8e	-0.006246037
191	0xbc416173	-0.011803019
192	0xbc24b356	-0.010052523
193	0xbc49f782	-0.012327077
194	0xba97bf69	-0.001157743
195	0xb9aa5cd1	-0.0003249408
196	0xbc4d855f	-0.012544005
197	0x3bc2e916	0.005948196
198	0xb941d62b	-0.00018485698
199	0xbc813539	-0.015772449
200	0xbc8a49c2	-0.016880874
201	0x3c01d615	0.007924576
202	0x3c4b0f41	0.0123937735
203	0x3c5225e8	0.01282642
204	0x3c8a858a	0.01690938
205	0xbbfa605f	-0.007640883
206	0xbc83db63	-0.016095823
207	0xbc084891	-0.008318082
208	0x3bc67110	0.0060559586
209	0xbc87beb9	-0.016570436
210	0xbc457f2a	-0.012054244
211	0xbc6f14df	-0.014592378
212	0x3c0aae56	0.0084644165
213	0xbc3a366d	-0.011365515
214	0xbc4e555f	-0.012593596
215	0x3c42facc	0.011900615
216	0xbc4b5801	-0.0124111185
217	0xbbd6c27e	-0.006553947
218	0xbb790227	-0.0037995668
219	0xbbddb0c8	-0.0067654587
220	0x3c95083f	0.018192409
221	0xbc3cad22	-0.011515887
222	0x3c5fbb77	0.013655535
223	0x3c92f6d7	0.017939968
224	0xbc8e4a88	-0.017369524
225	0xbc539c93	-0.012915748
226	0xbc2954a7	-0.010335124
227	0xbc418f1e	-0.011813907
228	0xbc642472	-0.013924705
229	0x3b384677	0.0028118172
230	0x3b066fd7	0.002051344
231	0xbc8f5068	-0.017494395
232	0xbc49d352	-0.012318449
233	0xbbd4cab8	-0.0064938925
234	0xbc17046c	-0.009217363
235	0x3c7a68b6	0.015283754
236	0xbad03239	-0.0015884108
237	0x3c4d8df9	0.012546056
238	0xbc06bd8d	-0.008223903
239	0xbc7a93f4	-0.015294064
240	0x3bf57bd9	0.0074915704
241	0xbc8b3fa5	-0.016998122
242	0x3bad05de	0.0052802404
243	0x38d33aaf	0.00010072195
244	0x3c3d42a1	0.01155153
245	0x3c7cff0f	0.01544167
246	0x3c63bed3	0.0139004765
247	0xbb3bf1d0	-0.0028678067
248	0x3ab4a3fc	0.0013781781
249	0xbc6380f7	-0.013885728
250	0xbbc88b5b	-0.006120128
251	0xbbfacb0c	-0.0076535996
252	0x3bfc003b	0.007690457
253	0x3c8af0f6	0.016960602
254	0xba8b1acc	-0.0010612844
255	0xbade1f6f	-0.0016946624

encoder.main.0.bias f4 [8]
0	0xbbea0afa	-0.007142422
1	0xbc296e41	-0.010341228
2	0x3beace69	0.0071657193
3	0x3c4e45f0	0.012589917
4	0x3c4eed85	0.012629871
5	0xbc872348	-0.016496316
6	0xba2dd9cf	-0.0006631882
7	0x3bef36ab	0.007300218

encoder.main.2.linear.weight f4 [8, 8]
0	0x3ea90c76	0.3301732
1	0x3e9253d2	0.28579575
2	0x3e6509c2	0.22367004
3	0xbd27df1a	-0.04098425
4	0xbe809646	-0.2511465
5	0x3c484615	0.01222374
6	0x3ea06915	0.3133017
7	0x3e5afa9f	0.21384667
8	0xbe5cb805	-0.21554573
9	0x3e887478	0.2665136
10	0xbe82b86c	-0.25531328
11	0x3e95199f	0.2912111
12	0x3e64dd8f	0.22350143
13	0xbdf2fe19	-0.118648715
14	0x3e81f2da	0.25380594
15	0x3e802847	0.2503073
16	0x3db24aaa	0.08705647
17	0xbea6ce71	-0.32579377
18	0x3e5af3ad	0.21382017
19	0xbe8f5ae8	-0.27999043
20	0x3e09951b	0.13435785
21	0xbe05196d	-0.1299798
22	0xbcba04af	-0.022707311
23	0xbe8f6f87	-0.28014776
24	0x3e9bb907	0.30414602
25	0x3e81c0c9	0.25342396
26	0xbe5f6d50	-0.21819043
27	0x3c0dc0af	0.008651896
28	0xbe85be9b	-0.26121983
29	0xbe8d72a0	-0.27626514
30	0xbe8333a4	-0.25625336
31	0x3ea0a212	0.3137365
32	0xbea0794e	-0.31342548
33	0x3dcdbcad	0.10045753
34	0xbe02b2c6	-0.12763509
35	0xbe8485e4	-0.258834
36	0xbe7c7299	-0.2465309
37	0x3d813c81	0.06310368
38	0x3e807fb6	0.25097436
39	0xbdae97a1	-0.08525015
40	0xbe9a812f	-0.30176684
41	0x3e9fa2dc	0.3117894
42	0xbe87cf10	-0.26525164
43	0xbe5b8e1e	-0.21440932
44	0xbdd8e612	-0.105907574
45	0xbe71c4f4	-0.23610288
46	0x3e2edf39	0.1707734
47	0x3e2ae128	0.16687453
48	0x3da5e6ed	0.08100686
49	0xbd7e120e	-0.062028937
50	0xbccf962a	-0.025340158
51	0xbe54118f	-0.20709823
52	0x3e6034bc	0.21895117
53	0xbd6c0cc9	-0.05762938
54	0xbe8ec1a6	-0.27882117
55	0x3bec306a	0.00720792
56	0x3e3bf109	0.18353666
57	0xbe8719f0	-0.26386976
58	0x3d017d47	0.031613614
59	0x3e125cea	0.14293256
60	0xbe820fe9	-0.25402763
61	0x3e6d4e22	0.23174337
62	0xbd8425c6	-0.06452517
63	0x3e7f5c54	0.24937564

encoder.main.2.linear.bias f4 [8]
0	0x3e141bce	0.14463732
1	0xbe02fb05	-0.12791069
2	0xbd344327	-0.044009354
3	0xbe0cfe85	-0.13768966
4	0x3e4caa31	0.19986798
5	0xbe72037c	-0.23634142
6	0xbe74a4c2	-0.23890975
7	0xbd926173	-0.07147493

encoder.main.4.linear.weight f4 [8, 8]
0	0xbddff1c2	-0.109347835
1	0x3e86ac68	0.2630341
2	0xbe15c685	-0.1462651
3	0xbea8a1e6	-0.3293602
4	0x3c02092a	0.007936755
5	0x3e0f7f01	0.14013292
6	0xbe1dc7b2	-0.15408209
7	0xbe2a30ce	-0.1662018
8	0x3e1eb0a6	0.15497074
9	0xbcddb078	-0.027061686
10	0x3df823d9	0.121162124
11	0x3e533647	0.20626174
12	0xbe56f8f5	-0.20993407
13	0x3e2f4de2	0.17119554
14	0x3e42ea85	0.19034775
15	0xbc00a721	-0.007852347
16	0xbe7b7667	-0.24556886
17	0x3e8176fe	0.25286096
18	0xbe9ac473	-0.30228004
19	0x3ea5ae2b	0.32359442
20	0x3d447f92	0.047973223
21	0x3bdada7b	0.006678877
22	0xbd558442	-0.052128084
23	0x3d83f957	0.06444042
24	0x3ea002d6	0.31252164
25	0x3d6f0c2f	0.05836123
26	0x3e8c8b31	0.27449945
27	0xbd54888f	-0.051888045
28	0x3cc40803	0.023929602
29	0xbe6e0d13	-0.23247175
30	0xbe999023	-0.2999278
31	0x3eb2d900	0.34931183
32	0x3e1034a0	0.14082575
33	0xbe97734d	-0.29580155
34	0x3decb5b1	0.115580924
35	0xbdc91846	-0.09819083
36	0xbd452dcf	-0.04813939
37	0xbe896f07	-0.2684252
38	0xbe3d885e	-0.18509051
39	0x3b2a54c2	0.002599046
40	0x3d971eba	0.073789075
41	0xbe3c3964	-0.18381268
42	0xbdec5141	-0.115389355
43	0xbeb1887f	-0.3467445
44	0x3eb2f9ce	0.3495621
45	0xbe8f090c	-0.2793659
46	0x3e9f41c2	0.31104857
47	0x3d435415	0.04768761
48	0x3decd75e	0.115645155
49	0x3dd239f3	0.10264959
50	0xbeb40c64	-0.35165703
51	0x3e2320a6	0.15930423
52	0xbce61bd0	-0.028089434
53	0x3dbe5858	0.09294194
54	0xbe10a156	-0.14124045
55	0x3db3733a	0.08762212
56	0xbe9dc304	-0.30812848
57	0xbea43f01	-0.32079318
58	0x3ea2e246	0.31813258
59	0x3e84b299	0.2591751
60	0x3e0ecc20	0.13945055
61	0xbe21b283	-0.15790753
62	0xbe95a564	-0.29227746
63	0x3e495aaf	0.196635

encoder.main.4.linear.bias f4 [8]
0	0xbe0acf90	-0.13555741
1	0x3ca68d26	0.020330977
2	0x3e1a12d9	0.15046252
3	0xbd36b26d	-0.044603754
4	0xbe3aca6a	-0.18241277
5	0xbcdda65a	-0.027056862
6	0xbdccfd32	-0.10009231
7	0x3e152bfe	0.14567563

encoder.main.6.weight f4 [16, 8]
0	0x3eaa1eca	0.33226615
1	0x3e9e6800	0.3093872
2	0xbe2627e2	-0.16226152
3	0xbd8321ef	-0.06402957
4	0xbdb375b0	-0.087626815
5	0xbb8afcea	-0.0042415755
6	0x3e50f31b	0.20405237
7	0xbe9075b5	-0.28214803
8	0x3e3ae09f	0.18249749
9	0xbea6bb3d	-0.32564726
10	0xbeb21748	-0.34783387
11	0x3e3c8b25	0.18412454
12	0x3cc47548	0.023981705
13	0xbe4727bc	-0.19448751
14	0x3e1f514e	0.15558359
15	0x3dcab677	0.09898084
16	0xbe448c14	-0.1919406
17	0xbeb54cf8	-0.35410285
18	0xbd754514	-0.05988033
19	0x3de77334	0.1130127
20	0xbabb2105	-0.0014276808
21	0xbea82e40	-0.32847786
22	0x3e420609	0.18947615
23	0xbe9ce006	-0.30639666
24	0xbe75252a	-0.23939958
25	0x3e47812c	0.19482869
26	0x3b6a2e15	0.0035733033
27	0x3eb39776	0.35076493
28	0xbe67f770	-0.22652984
29	0xbe6f75db	-0.23384802
30	0x3e43016d	0.19043513
31	0x3ea2a4fd	0.317665
32	0xbd044872	-0.03229565
33	0xbe02711c	-0.1273846
34	0x3e95c0bf	0.29248616
35	0x3daa8e5c	0.08327934
36	0x3c0f2a2b	0.008738081
37	0x3e38166f	0.17977308
38	0x3e6c2d68	0.23064196
39	0x3e96df39	0.2946718
40	0xbe9b80da	-0.30371743
41	0x3d14485a	0.036201812
42	0x3e8cdddc	0.27513015
43	0xbc504598	-0.012711905
44	0x3d79aebd	0.06095766
45	0xbe2a2daf	-0.1661899
46	0xbceeb405	-0.029138574
47	0xbe5464bb	-0.2074155
48	0xbca8af80	-0.020591497
49	0x3e73be25	0.23803003
50	0xbe1bed75	-0.15227301
51	0x3dd1da08	0.10246664
52	0xbba6a04d	-0.0050850273
53	0x3d8e8556	0.069590256
54	0xbeaf5170	-0.3424182
55	0x3cd21ab7	0.025647504
56	0xbea059ff	-0.31318662
57	0xbea28f54	-0.31749976
58	0xbeab81be	-0.33497423
59	0x3e9e5f74	0.309322
60	0xbdac0a0c	-0.08400354
61	0x3c96adc4	0.018393405
62	0x3bf2e4fa	0.00741255
63	0xbdc3c8bb	-0.09559771
64	0x3eae50e3	0.34046087
65	0xbe7705ea	-0.2412335
66	0xbe1f1e1c	-0.1553883
67	0xbd3e1e61	-0.04641569
68	0x3e81b88b	0.25336108
69	0xbe95030b	-0.29103884
70	0xbe923d9c	-0.2856263
71	0x3eaac5bb	0.3335398
72	0xbe1c92a0	-0.15290308
73	0xbe3d4845	-0.184846
74	0x3ea9fe35	0.33201757
75	0xbd53f30d	-0.051745463
76	0x3e726f78	0.23675334
77	0x3d17b601	0.037038807
78	0xbe8e629b	-0.27809605
79	0xbe20a420	-0.15687609
80	0xbdb52324	-0.08844593
81	0xbe1b6247	-0.15174209
82	0x3e49d35f	0.19709538
83	0x3e649343	0.22321801
84	0xbe0f8f01	-0.14019395
85	0x3d620e50	0.05518943
86	0xbd50f566	-0.05101528
87	0xbdfba4dd	-0.122873046
88	0x3e90fc9b	0.28317723
89	0xbdb9aa26	-0.09065656
90	0x3eb247cb	0.348204
91	0x3dcf14ce	0.1011139
92	0xbc618487	-0.013764507
93	0xbc92c051	-0.01791397
94	0x3d50869e	0.05090963
95	0x3dc654b0	0.096841216
96	0x3e08e404	0.13368231
97	0xbe828d7a	-0.25498563
98	0xbe70c6ab	-0.23513286
99	0x3e8f2bbf	0.27963063
100	0x3e9031a2	0.28162867
101	0xbd8dde79	-0.06927199
102	0x3e83a623	0.2571269
103	0x3e8e1df5	0.2775723
104	0x3dfbc692	0.12293734
105	0xbd4cb0cf	-0.049973305
106	0xbeae6484	-0.34061062
107	0x3e998718	0.2998588
108	0x3e7640d6	0.2404817
109	0xbe7fddb8	-0.24986923
110	0x3ea04517	0.3130271
111	0x3c464a98	0.0121027455
112	0xbe85a43f	-0.26101872
113	0x3e9904bd	0.29886428
114	0xbdf68a84	-0.120381385
115	0xbe380ab5	-0.17972834
116	0xbdc558ff	-0.09636115
117	0xbe482b66	-0.19547805
118	0xbeaf5d27	-0.34250757
119	0xbe260c32	-0.1621559
120	0x3e4fcb4a	0.20292392
121	0xbe3f9b9f	-0.18711708
122	0xbdca7618	-0.09885806
123	0x3d9d0781	0.07667447
124	0x3e6938fc	0.22775644
125	0xbe3b08a4	-0.18265015
126	0xbdcde186	-0.10052781
127	0xbdff751e	-0.1247351

encoder.main.6.bias f4 [16]
0	0xbe8b4476	-0.2720067
1	0xbdff46b6	-0.12464659
2	0x3ddae31b	0.10687848
3	0xbe9a45ce	-0.30131382
4	0xbe95c4b2	-0.2925163
5	0xbe80574d	-0.25066605
6	0xbe2313da	-0.15925542
7	0x3e2ba2bc	0.16761297
8	0xbe85e1eb	-0.26148924
9	0x3ea0312b	0.31287512
10	0xbe1c2996	-0.15250239
11	0xbe1c9a91	-0.15293337
12	0x3e823e3a	0.254381
13	0xbe0d9e90	-0.13830018
14	0x3babe972	0.0052463347
15	0xbe979d59	-0.29612234

decoder.rand_freqs f4 [24, 3]
0	0x3f897ab5	1.0740572
1	0x3eebb03d	0.46032897
2	0x3e824dcf	0.25449988
3	0xbf647a4a	-0.892491
4	0xbeee42ce	-0.46535343
5	0xbef6d137	-0.48206493
6	0xbf6e144f	-0.9299974
7	0x3f321a85	0.69571716
8	0xbec63438	-0.38711715
9	0xbeaecaba	-0.34139043
10	0xbeac42d7	-0.33644745
11	0xbe2b4cb0	-0.16728473
12	0xbf02c44a	-0.51080763
13	0x3f3cd872	0.7376777
14	0x3f1d2d46	0.61397207
15	0xbf3dc519	-0.7412887
16	0xbe267950	-0.16257215
17	0x3ead44fe	0.338417
18	0x3ecf52e6	0.40492934
19	0x3e406da9	0.18791832
20	0x3e86c795	0.26324144
21	0xbe5e8cf7	-0.21733461
22	0x3d82a977	0.06379979
23	0xbf316492	-0.69294083
24	0x3e80021a	0.25001603
25	0x3f31cd56	0.6945394
26	0x3f81fb35	1.0154787
27	0x3d1f4a45	0.03888919
28	0xbf0f7cc3	-0.56049746
29	0x3f135e47	0.5756573
30	0x3fd69650	1.6764622
31	0xbec9358f	-0.39298674
32	0x3f0a200c	0.5395515
33	0xbf6738fe	-0.9032134
34	0xbf82fa84	-1.0232701
35	0xbe45bc79	-0.19310178
36	0xbe977d72	-0.29587895
37	0xbf08a423	-0.5337545
38	0x3a77dd98	0.0009455322
39	0xbe558296	-0.20850596
40	0x3e17728c	0.1478979
41	0xbf80c760	-1.0060844
42	0x3e034312	0.12818554
43	0x3f277b8f	0.6542291
44	0x3ec53e4e	0.38524097
45	0x3dc88531	0.09791029
46	0xbfc3636b	-1.5264715
47	0x3e82f68d	0.25578728
48	0x3e9ba9a7	0.30402872
49	0x3cb42d49	0.02199425
50	0xbe4b42fe	-0.19849774
51	0xbf085b9c	-0.53264785
52	0x3f29d777	0.663444
53	0xbe87060b	-0.26371798
54	0xbd825e95	-0.06365696
55	0xbdb792a2	-0.08963515
56	0x3c174641	0.009233058
57	0xbea50ff4	-0.32238734
58	0xbe3d565c	-0.18489975
59	0x3dd952bd	0.10611484
60	0x3ee9095e	0.4551496
61	0xbea7f103	-0.32801065
62	0xbe2c960b	-0.16854112
63	0xbdfc54a0	-0.123208284
64	0x3eaf7bd5	0.34274164
65	0x3e906bcb	0.2820724
66	0xbea6b875	-0.32562605
67	0x3ebc4b2d	0.36776105
68	0xbe926ca8	-0.28598523
69	0x3ee009ef	0.4375758
70	0xbee1e865	-0.44122615
71	0xbed2a3ab	-0.41140494

decoder.decoder.main.0.weight f4 [8, 56]
0	0xbdafae54	-0.08578172
1	0xbdb6c9fc	-0.08925244
2	0x3dc7c1d2	0.09753765
3	0xbc3a6127	-0.011375702
4	0xbd68ded3	-0.056853127
5	0x3c06dbfa	0.008231157
6	0xbd6cee0e	-0.057844214
7	0xbb5d0876	-0.0033726967
8	0x3c7f2702	0.015573265
9	0x3d9b1556	0.07572429
10	0x3c24b78e	0.0100535285
11	0x3c850cf4	0.016241528
12	0xbb73addc	-0.0037182486
13	0x3c15e426	0.009148633
14	0x3d99dfc5	0.07513384
15	0x3d14327b	0.036180954
16	0xbe36df8e	-0.17858717
17	0x3cae90ec	0.021309339
18	0xbcffefab	-0.031242212
19	0xbdb154fa	-0.08658786
20	0x3dab874c	0.08375415
21	0xbdcd381f	-0.1002047
22	0xbe12a9b5	-0.1432255
23	0xbc4e5ef1	-0.012595878
24	0x3dc9c827	0.09852629
25	0x3d478dc8	0.048719198
26	0x3dad63e3	0.084663175
27	0x3c5c34b7	0.013440303
28	0x3d369741	0.04457784
29	0x3e7ccedc	0.24688286
30	0xbcd29c4f	-0.0257093
31	0x3d20c644	0.03925158
32	0x3e498516	0.19679675
33	0x3c2f606f	0.010704144
34	0x3e4a6f47	0.19769011
35	0x3de35aa2	0.11101271
36	0x3e1e1e6a	0.1544129
37	0x3e71ead5	0.23624738
38	0x3e445acf	0.19175266
39	0x3e68970d	0.22713871
40	0x3da6e8c3	0.081498645
41	0x3dc21f83	0.09478667
42	0x3da96c14	0.082725674
43	0x3dd297b3	0.102828406
44	0xbc4a8662	-0.012361141
45	0x3d79e741	0.061011557
46	0x3dfbd65e	0.12296747
47	0x3d621b05	0.05520155
48	0xbdba5f26	-0.091001794
49	0xbdd9abe0	-0.10628486
50	0xbdb23e95	-0.08703343
51	0xbcdf88ba	-0.027286876
52	0x3d83c1cd	0.06433449
53	0x3b384409	0.0028116724
54	0xbd8811a1	-0.066439874
55	0xbddd3f6b	-0.10803112
56	0x3dac449b	0.08411523
57	0x3cce2bcc	0.025167368
58	0x3d9df435	0.077125944
59	0x3cfe9138	0.031075105
60	0x3da71153	0.08157601
61	0x3d151852	0.036400147
62	0xbdc0bdda	-0.09411211
63	0xbcbe9b97	-0.02326755
64	0xbdbda15d	-0.09259293
65	0x3c4666ab	0.012109439
66	0xbb859ccd	-0.00407753
67	0x3d8c9380	0.06864071
68	0x3ddaaa4f	0.10677015
69	0xbd5cbe1c	-0.05389224
70	0xbd03647b	-0.032078248
71	0x3dc7a0dc	0.09747478
72	0x3dd33ed0	0.10314715
73	0x3da62668	0.08112794
74	0x3cdc6688	0.02690436
75	0x3d42b4ac	0.047535583
76	0xbbc0c10d	-0.0058823884
77	0x3e0ba6ac	0.13637799
78	0x3d1fdec1	0.039030794
79	0x3d807acc	0.06273422
80	0xbd8a0ade	-0.06740354
81	0x3b88e33f	0.0041774805
82	0xbde60af3	-0.11232557
83	0x3d1589bc	0.036508307
84	0xbdbfa68a	-0.09357937
85	0xbe0bff1e	-0.13671538
86	0xbdbbefe1	-0.09176613
87	0xbc825554	-0.015909828
88	0xbda6393a	-0.08116384
89	0xbe216a97	-0.15763317
90	0xbe453698	-0.19259107
91	0x3d59c565	0.053166766
92	0xbbe301a4	-0.006927686
93	0xbd217c15	-0.039424974
94	0xbd6e736a	-0.058215536
95	0x3d13dd6a	0.03609983
96	0xbc8af3a5	-0.016961882
97	0xbb90c894	-0.004418442
98	0x3cee3451	0.02907768
99	0x3c31cae0	0.010851592
100	0xbdb3a5f6	-0.08771889
101	0xbdba5e4f	-0.09100019
102	0x3b2c1a02	0.002626062
103	0x3d5fae10	0.05460936
104	0x3dda0d8b	0.10647114
105	0x3d6ca742	0.057776697
106	0xbdb39a8e	-0.08769713
107	0x3dbb61b2	0.09149493
108	0x3db7de89	0.08977992
109	0xbd8e8204	-0.06958392
110	0x3ddade25	0.10686902
111	0xbc19aaec	-0.00937913
112	0x3d3068e9	0.0430688
113	0x3df988ca	0.121842936
114	0x3d01307a	0.03154037
115	0x3d38082f	0.04492968
116	0xbca58777	-0.020206196
117	0xbdc56c49	-0.096397944
118	0x3cdfff4c	0.027343415
119	0x3d838b78	0.06423086
120	0x3cacd542	0.021097783
121	0xbbadc564	-0.005303072
122	0xbd9c54c2	-0.07633354
123	0xbdf23bfb	-0.118278466
124	0xbd3d1eb3	-0.046171855
125	0xbd8ece57	-0.0697295
126	0xbda6d4e4	-0.081460744
127	0x3e042e06	0.12908182
128	0x3c26e44d	0.010186267
129	0xbd177ea4	-0.03698601
130	0x3cb17826	0.021663737
131	0xbc9c14e7	-0.019052936
132	0xbda84c85	-0.0821772
133	0xbca64194	-0.020294942
134	0x3db0d279	0.086338945
135	0x3cbf5b7c	0.023359053
136	0x3e6a1242	0.22858527
137	0x3e12aa56	0.1432279
138	0x3d9918cd	0.074754335
139	0x3df83c49	0.121208735
140	0x3cc0b414	0.023523368
141	0x3d38a31e	0.045077436
142	0x3e4596b3	0.19295768
143	0xbca91be2	-0.020643178
144	0x3df84b82	0.12123777
145	0x3dcaa2e4	0.0989435
146	0x3e49aba1	0.19694377
147	0x3e0b1f0f	0.13586067
148	0x3dfc9fd8	0.12335175
149	0x3e1d1c86	0.15342912
150	0x3d9d7cbe	0.07689808
151	0x3df1e913	0.118120335
152	0x3d45e7c8	0.048316747
153	0x3e35382c	0.17697209
154	0xbad04438	-0.0015889471
155	0x3daab153	0.08334603
156	0x3e23679f	0.15957497
157	0x3dd9ec5c	0.10640785
158	0x3db62fcb	0.088958345
159	0x3de92985	0.11384872
160	0xbd5fca80	-0.05463648
161	0xbcacb452	-0.021082077
162	0x3aa85c5c	0.0012844908
163	0x3d22243f	0.03958535
164	0x3d960415	0.07324997
165	0xbc8ed19a	-0.01743393
166	0xbd739e3a	-0.05947707
167	0xbdbf8dff	-0.093532555
168	0x3d2d3e21	0.04229558
169	0xbd3c1998	-0.045922846
170	0xbce8b9e7	-0.028408958
171	0xbb5ff70e	-0.0034174356
172	0x3dcd7cbc	0.10033557
173	0x3d997f76	0.07495014
174	0xbbe8e478	-0.0071073137
175	0x3dc0371a	0.0938551
176	0x3d22b438	0.03972265
177	0xbccbd2a4	-0.024880715
178	0xbcf0c9e8	-0.029393151
179	0xbd874406	-0.06604771
180	0x3d4f779d	0.05065118
181	0xbcc2e526	-0.023790907
182	0xbda180cf	-0.078858964
183	0xbd06a81a	-0.032875158
184	0x3d7dbbc3	0.06194664
185	0x3cfbebbc	0.030752055
186	0xbcc2bf56	-0.023772877
187	0x3d810ffb	0.06301876
188	0x3d8ab6e7	0.06773167
189	0x3dbdb87f	0.092637055
190	0x3d13502c	0.03596513
191	0xbd2f1d0e	-0.042752318
192	0x3e623277	0.22089563
193	0x3e0e3a79	0.13889493
194	0x3e1b0f80	0.15142632
195	0x3da8406e	0.08215414
196	0x3e691833	0.22763138
197	0x3dd5751d	0.10422728
198	0x3e2251ba	0.15851489
199	0x3e57ea5c	0.21085495
200	0x3df1cbdc	0.11806461
201	0x3bad38cf	0.005286313
202	0x3dfb985a	0.12284918
203	0x3df0d766	0.11759834
204	0x3dfb1278	0.12259382
205	0x3c0f6d58	0.008754097
206	0x3dddf064	0.108368665
207	0x3e3f953b	0.1870927
208	0x3dbb243f	0.09137773
209	0x3e75237b	0.23939316
210	0xbd0bf2ac	-0.034166977
211	0x3e22a733	0.15884094
212	0x3df6775f	0.12034487
213	0x3da99f83	0.082823776
214	0x3e3a36e5	0.18185003
215	0x3dff94b6	0.12479536
216	0xbcdcb88c	-0.026943468
217	0xbb76da8d	-0.0037666888
218	0x3d414c51	0.04719192
219	0xbcbef78d	-0.0233114
220	0xbc87a8fa	-0.016560066
221	0xbd31181b	-0.04323588
222	0x3d80cc93	0.062890194
223	0x3d5a1fad	0.053252865
224	0xbdbd7a77	-0.09251874
225	0xbd261ae4	-0.04055299
226	0xbd245b5f	-0.0401262
227	0x3c663fb0	0.01405327
228	0xbd30464e	-0.043035798
229	0x3d5fd049	0.054641996
230	0x3e0a9132	0.1353195
231	0xbda84270	-0.08215797
232	0x3d77e471	0.060520593
233	0x3d92e3dd	0.07172368
234	0x3c5fbca2	0.013655813
235	0x3dd186e0	0.102308035
236	0xbd01c6a3	-0.031683575
237	0xbc61dd1e	-0.013785629
238	0x3d1b5ae0	0.037928462
239	0xbcd8ddb9	-0.026472913
240	0x3d6b0459	0.057377193
241	0xbdd38193	-0.10327449
242	0xbc5399b0	-0.01291506
243	0x3c88c2f3	0.016694522
244	0xbd952bd3	-0.072837494
245	0xbde2f6c9	-0.11082227
246	0x3ca6acef	0.020346133
247	0xbd6e6c14	-0.05820854
248	0x3db835af	0.08994614
249	0x3e56ac1d	0.20964094
250	0x3e179e45	0.14806469
251	0x3e37b7fd	0.1794128
252	0x3e338b82	0.17533687
253	0x3df13176	0.11777012
254	0xbc6422a7	-0.013924277
255	0x3e402e09	0.18767561

decoder.decoder.main.0.bias f4 [8]
0	0x3daa21bf	0.08307218
1	0xbdb73999	-0.08946533
2	0xbe246a22	-0.16056111
3	0xbe1169a5	-0.14200456
4	0x3c1eec5e	0.009699909
5	0xbc6617c6	-0.014043754
6	0x3d985e7b	0.07439896
7	0x3d9f4f09	0.07778747

decoder.decoder.main.2.linear.weight f4 [8, 8]
0	0x3cc70089	0.024292247
1	0xbcb63305	-0.022241125
2	0x3ee0d354	0.4391123
3	0x3c7ad3a2	0.015309246
4	0x3ee6a0af	0.45044467
5	0x3e843554	0.25821936
6	0xbd43d2ec	-0.047808573
7	0xbea9a6c2	-0.3313504
8	0x3e5e1e14	0.21691161
9	0xbe718c1d	-0.23588605
10	0x3e9c0d9f	0.30479142
11	0x3e9c3780	0.30511093
12	0x3e64d566	0.2234703
13	0x3e6298ce	0.22128603
14	0x3e0f41cb	0.13989942
15	0xbebe2d47	-0.3714392
16	0x3eb9c8f7	0.36286137
17	0x3e97f324	0.2967769
18	0x3ccf2a42	0.025288705
19	0x3d987943	0.07445004
20	0xbce0dc17	-0.027448697
21	0x3e8458bf	0.25848958
22	0x3e39df1f	0.1815152
23	0xbe33cda5	-0.17558916
24	0xbd79b1b9	-0.060960505
25	0xbddda53e	-0.10822533
26	0xbd9fed90	-0.07808983
27	0x3ca91e92	0.02064446
28	0xbe06147b	-0.1309375
29	0x3e46be28	0.19408476
30	0x3ddc1f73	0.10748186
31	0x3e663f81	0.22485162
32	0x3e75226a	0.23938909
33	0x3d35cbcc	0.04438381
34	0x3c362f20	0.011119634
35	0x3ed3fb0d	0.41402474
36	0xbe7b46c8	-0.2453872
37	0x3dc66835	0.09687845
38	0xbdce8c83	-0.10085394
39	0xbe6b46a4	-0.22976166
40	0x3e5c9b15	0.21543534
41	0xbec652c3	-0.38735017
42	0x3e9b2616	0.30302495
43	0xbca9b1e7	-0.020714713
44	0xbe2349ed	-0.15946169
45	0x3e802b6e	0.25033134
46	0xbeb7ef19	-0.35924605
47	0xbdef4835	-0.11683694
48	0xbe6a262c	-0.22866124
49	0xbde5fe24	-0.11230114
50	0xbe156ea6	-0.1459299
51	0x3e03400b	0.12817399
52	0x3e60f100	0.21966934
53	0x3cc584c5	0.024111161
54	0x3cdcb404	0.026941307
55	0xbe230b8f	-0.15922378
56	0xbece9b76	-0.40352982
57	0x3e6b7ede	0.22997615
58	0x3e623ad5	0.22092755
59	0x3dfdfec2	0.12402107
60	0x3e0c3851	0.13693358
61	0xbc952b0d	-0.018209005
62	0xbe84838e	-0.25881618
63	0x3e7a8d6a	0.24468008

decoder.decoder.main.2.linear.bias f4 [8]
0	0x3bbe9dbb	0.005817143
1	0x3d879e38	0.06621975
2	0x3e72f77d	0.23727222
3	0x3e4a099d	0.1973023
4	0x3e2abe50	0.16674161
5	0xbecdfdaf	-0.40232608
6	0xbe1990ae	-0.14996597
7	0xbe65dc8d	-0.22447415

decoder.decoder.main.4.linear.weight f4 [8, 8]
0	0x3bd0c226	0.0063708005
1	0xbdd73d08	-0.10509688
2	0xbe9c3f71	-0.30517152
3	0xbe507459	-0.20356883
4	0x3d9e4df7	0.07729714
5	0x3e0e9a31	0.13926007
6	0x3c72a065	0.014808749
7	0x3e8a819e	0.27052015
8	0xbed130aa	-0.4085744
9	0x3cd339fc	0.025784485
10	0xbe22dbc5	-0.15904148
11	0x3d00e9c7	0.031472947
12	0xbd90fc9a	-0.0707943
13	0xbdd08e9f	-0.10183453
14	0xbc9ed4a7	-0.01938851
15	0x3e0030c7	0.12518607
16	0x3d61d891	0.055138174
17	0xbda49fdd	-0.08038304
18	0x3e2243de	0.15846202
19	0x3ea6e63a	0.32597524
20	0x3d9af059	0.07565374
21	0x3ee17366	0.44033355
22	0x3df9ce9c	0.12197611
23	0x3e83196e	0.2560534
24	0x3e41c44b	0.18922536
25	0x3e97c207	0.2964022
26	0x3e3f3e64	0.18676144
27	0xbca7db7b	-0.020490399
28	0x3ed26b44	0.41097462
29	0x3d7d203c	0.06179832
30	0xbdc23b5f	-0.094839804
31	0xbd953fcf	-0.07287561
32	0x3e07bdf5	0.13256057
33	0x3e840f0a	0.25792724
34	0xbdfe65f4	-0.1242179
35	0x3e31c899	0.17361678
36	0x3e63c000	0.22241211
37	0x3eb99730	0.3624816
38	0xbe17e369	-0.14832844
39	0xbeb2ec20	-0.34945774
40	0x3e0edbf6	0.13951096
41	0x3e16cbf7	0.14726244
42	0x3d86aff3	0.065765284
43	0xbe83a54e	-0.25712055
44	0xbdf67060	-0.120331526
45	0x3ec9f024	0.39441025
46	0xbe36288c	-0.17788905
47	0x3e621dfc	0.2208175
48	0xbd61b75f	-0.055106517
49	0x3bef6b74	0.0073065106
50	0xbdbf816f	-0.093508594
51	0x3e7ca08f	0.24670623
52	0xbe86dd4b	-0.26340708
53	0x3e15491b	0.14578669
54	0x3e8b4db7	0.2720773
55	0x3d2516ce	0.04030495
56	0xbdca042e	-0.098640785
57	0xbe9bcd2e	-0.30429977
58	0xbe5ee02c	-0.21765202
59	0xbe353683	-0.17696576
60	0xbddaa29d	-0.10675547
61	0x3e5282a0	0.20557642
62	0xbdfb9aae	-0.12285362
63	0xbea375bb	-0.3192576

decoder.decoder.main.4.linear.bias f4 [8]
0	0xbbd40e9b	-0.0064714677
1	0xbc701b5f	-0.014654963
2	0xbc7587a0	-0.014985949
3	0xbea05ef2	-0.31322438
4	0x3ddd4a83	0.108052276
5	0x3e8cc85f	0.2749662
6	0xbd6fdb95	-0.05855902
7	0xbe3efa86	-0.18650255

decoder.decoder.main.6.linear.weight f4 [8, 8]
0	0xbe41e5bd	-0.18935294
1	0xbe292bdc	-0.16520637
2	0x3e0ed037	0.13946615
3	0xbe71415e	-0.23560092
4	0xbe789d19	-0.24278678
5	0xbe50e0ce	-0.20398256
6	0xbd12f126	-0.03587451
7	0x3e7627dc	0.24038643
8	0x3e2398ac	0.15976208
9	0x3b8ba6c2	0.0042618224
10	0xbd900a08	-0.07033163
11	0x3e2f9d5f	0.17149876
12	0x3e273b85	0.16331299
13	0xbe9ade88	-0.30247903
14	0xbe3e1c03	-0.18565373
15	0xbc57e4c2	-0.013177099
16	0xbbcba050	-0.006214179
17	0x3df4b671	0.119488604
18	0xbd16f741	-0.036856893
19	0x3df0aa7b	0.117512666
20	0xbe09e989	-0.13467993
21	0xbc4fcd00	-0.012683153
22	0xbd7f6b06	-0.062357925
23	0x3ca49e76	0.020095091
24	0x3dc362bd	0.09540317
25	0xbe78392b	-0.24240558
26	0xbdc53793	-0.096297406
27	0x3e75c189	0.23999609
28	0x3c8b056a	0.016970355
29	0x3e7363e4	0.23768574
30	0xbbaf103c	-0.0053425115
31	0x3ee1fe26	0.44139212
32	0x3d3492a9	0.04408518
33	0xbe55c49a	-0.20875779
34	0x3e073696	0.13204417
35	0xbe130661	-0.14357902
36	0x3e9b5555	0.3033854
37	0xbe66ec45	-0.22551067
38	0xbc78a789	-0.015176662
39	0xbde6e712	-0.11274542
40	0xbe9c4ce3	-0.3052741
41	0xbd438f81	-0.047744278
42	0x3e83666d	0.25664082
43	0xbe50a7a2	-0.20376447
44	0xbec44bc8	-0.38339067
45	0xbe9dbfff	-0.30810544
46	0x3e894677	0.26811573
47	0xbebd1000	-0.3692627
48	0xbc24d304	-0.010060076
49	0xbd2562bd	-0.040377367
50	0x3e072d50	0.13200879
51	0x3e89e713	0.26934108
52	0xbdd32331	-0.103094466
53	0xbecf9bee	-0.40548652
54	0xbe0c46a9	-0.1369883
55	0x3e3c4005	0.18383797
56	0x3e169172	0.1470392
57	0x3c490998	0.012270354
58	0xbe97b79a	-0.29632264
59	0xbe7158d3	-0.2356904
60	0x3e875f46	0.26439875
61	0xbe32f8ca	-0.17477718
62	0x3d370a91	0.04468781
63	0xbe1ccd90	-0.15312791

decoder.decoder.main.6.linear.bias f4 [8]
0	0x3eacfbfc	0.33786
1	0xbe902bce	-0.2815842
2	0x3dc59aeb	0.09648689
3	0x3d4f9541	0.05067945
4	0x3e0d9557	0.138265
5	0xbeb993fb	-0.36245713
6	0xbd21379b	-0.03935967
7	0xbe063e60	-0.13109732

decoder.decoder.main.8.weight f4 [1, 8]
0	0x3d403fc6	0.04693582
1	0xba36fc31	-0.00069803285
2	0xbdd0ebab	-0.102012
3	0xbe89a4cc	-0.26883543
4	0xbe0bb9cc	-0.13645095
5	0x3d302568	0.043004423
6	0x3e71c5f0	0.23610663
7	0x3e740b51	0.23832442

exp_avg f4 [8, 56]
0	0xb72d8f33	-1.0344945e-05
1	0xba579538	-0.00082238344
2	0xba56e178	-0.00081970496
3	0xb94f0f4b	-0.00019746755
4	0xbb22ebfa	-0.0024859891
5	0xba9628ba	-0.0011456229
6	0x3a400380	0.000732474
7	0x3a799172	0.0009520269
8	0xbae4e445	-0.0017463049
9	0xba32e57a	-0.0006824356
10	0x3b034a9c	0.0020033484
11	0x39e74e67	0.00044118168
12	0xb954faaf	-0.00020311282
13	0x3ac09efe	0.0014695821
14	0xbae9d67f	-0.0017840414
15	0xba9a6301	-0.0011778773
16	0x3b05f517	0.0020440274
17	0x3944283a	0.00018707002
18	0x3a4dc729	0.00078498066
19	0x39e4171f	0.00043504775
20	0x39a64d1e	0.00031719444
21	0xbab899cd	-0.0014083922
22	0x3a7dd555	0.0009682973
23	0x3b632fba	0.0034665898
24	0xbcd209aa	-0.025639374
25	0xbcfb2eee	-0.030662026
26	0xbce5a6ee	-0.0280337
27	0xbcb43ceb	-0.022001704
28	0xbbb3c41b	-0.005486024
29	0xbc6587e6	-0.0140094515
30	0xbcab41ae	-0.020905342
31	0xbc1637e7	-0.009168602
32	0xbbfdfb5f	-0.007750913
33	0xbc216dd8	-0.009852849
34	0xbcd8b871	-0.026455136
35	0xbcc068e7	-0.023487521
36	0xbcab5c47	-0.020918025
37	0xbb6794c4	-0.0035336474
38	0xbcc031b9	-0.02346121
39	0xbcaede2f	-0.02134618
40	0xbc933d2b	-0.017973503
41	0xbcdc5c66	-0.026899528
42	0xbc2b47ef	-0.010454162
43	0xbccccf10	-0.025001079
44	0xbcacd65d	-0.02109831
45	0xbca80da2	-0.020514313
46	0xbcc06c05	-0.023489008
47	0xbc837ca2	-0.01605064
48	0xb8e2aa34	-0.000108082226
49	0xbb855f15	-0.0040701726
50	0xbadb868a	-0.001674847
51	0x3b15ec45	0.0022876423
52	0xbc071d10	-0.008246675
53	0x3bc26e29	0.0059335423
54	0x3ba6bd5a	0.0050884904
55	0x3b491513	0.0030682727
56	0xb92c13df	-0.00016410601
57	0x3886f7a1	6.4357424e-05
58	0xb9111cc2	-0.0001383899
59	0xb9a853f0	-0.00032105995
60	0xb7f8ed67	-2.9674453e-05
61	0xba2c407f	-0.000657089
62	0xb9431eac	-0.00018608075
63	0x3a0b69ab	0.0005318175
64	0x399d2a4f	0.00029976896
65	0xba080bcf	-0.0005189748
66	0x396fb174	0.00022858923
67	0xb984991f	-0.00025291086
68	0xba20f94f	-0.00061406655
69	0xb98e8026	-0.0002717983
70	0xb9ed7769	-0.0004529313
71	0xba1e9fcb	-0.00060510327
72	0x38a0e3c9	7.671823e-05
73	0xb986a615	-0.00025682212
74	0xb9aa5635	-0.00032489156
75	0xb997925c	-0.0002891001
76	0x3a033c8f	0.00050062774
77	0xba624679	-0.0008631717
78	0x398227ae	0.00024825096
79	0x38c949a1	9.598141e-05
80	0x3a4f3049	0.00079036184
81	0x3a35a90e	0.0006929793
82	0x3aa6a0d6	0.0012712728
83	0x38c03ad4	9.166231e-05
84	0x3a6c53b0	0.0009015156
85	0x3adb0fa2	0.0016713033
86	0x39f978d9	0.0004758302
87	0x3a8f7000	0.0010943413
88	0x3aa0dca1	0.0012272784
89	0x3ae2f06c	0.0017314083
90	0x3a9770ce	0.0011554004
91	0x3a6fb4e5	0.0009144082
92	0x3a1a8836	0.0005894931
93	0x3add2978	0.001687332
94	0x3a07e194	0.0005183455
95	0x3a8d6186	0.001078651
96	0x3a7f3c1b	0.00097364344
97	0x3a6755cc	0.00088247354
98	0xbb5274cd	-0.0032113076
99	0x3a93deec	0.0011281646
100	0x3a417eed	0.0007381279
101	0x3a4f334e	0.00079040683
102	0x3a557e88	0.000814416
103	0x37b586cd	2.1639653e-05
104	0x3a018c87	0.00049418997
105	0x3a174cb6	0.00057716237
106	0x3a2a6beb	0.00065010664
107	0x3a1367f6	0.00056230964
108	0xba6bed82	-0.000899993
109	0x3aaf4645	0.0013372382
110	0x39044386	0.00012613655
111	0x3a021f42	0.0004963764
112	0x39bf47b3	0.0003648378
113	0xb9ba84e5	-0.000355757
114	0x39c6c7ab	0.00037914267
115	0x3a08e6b0	0.00052223634
116	0xbb1cf3c6	-0.0023949011
117	0xbaff71d6	-0.0019488882
118	0xb9c3d2b0	-0.00037350273
119	0x3add9963	0.0016906675
120	0xbb0cb580	-0.0021470487
121	0xba9054d8	-0.0011011614
122	0x3a24e471	0.0006290144
123	0xba1fa338	-0.000608969
124	0xb9e89e23	-0.0004436831
125	0x3aa854fa	0.0012842708
126	0xba50c386	-0.00079637056
127	0x39c369e7	0.00037272202
128	0x3a9255d3	0.0011164494
129	0xb888a0a5	-6.514908e-05
130	0x39c37634	0.00037281367
131	0x3942096f	0.00018504796
132	0x3a180c94	0.0005800214
133	0xba928e5d	-0.0011181344
134	0x390693b6	0.00012834262
135	0x3b326336	0.002721978
136	0xbc99654b	-0.018725058
137	0xbcc02815	-0.023456613
138	0xbcb9ace2	-0.022665445
139	0xbc9a4d4f	-0.018835692
140	0xbbe6fdb1	-0.0070492853
141	0xbc50a87e	-0.012735484
142	0xbc8d6674	-0.017260768
143	0xbc2a512e	-0.010395331
144	0xbbe70bba	-0.0070509585
145	0xbc38f1a3	-0.011288079
146	0xbca0b0e0	-0.01961559
147	0xbc9dd7f7	-0.01926802
148	0xbc945f58	-0.01811187
149	0xbb95edbc	-0.0045754593
150	0xbc9b41eb	-0.01895233
151	0xbc927f0a	-0.017882843
152	0xbc84f3b5	-0.01622949
153	0xbcb07e90	-0.021544725
154	0xbbef8a26	-0.0073101697
155	0xbca94607	-0.020663274
156	0xbc947cc8	-0.018125907
157	0xbc941022	-0.018074099
158	0xbc9f79ef	-0.019467322
159	0xbc6b55f5	-0.0143637555
160	0xba1d1702	-0.0005992503
161	0xbb26fb7d	-0.0025479489
162	0xbac7acac	-0.0015233955
163	0x3b4df069	0.0031423813
164	0xbb686964	-0.0035463208
165	0x3b8076f7	0.0039204317
166	0x3b31e851	0.0027146528
167	0x3791b04a	1.7367438e-05
168	0xba2ea40b	-0.00066620175
169	0xbb14731c	-0.0022651618
170	0xba331b2e	-0.0006832358
171	0xb9cca5d2	-0.00039033458
172	0x3af58acf	0.0018733385
173	0x3b1c0a7c	0.002380996
174	0x38ddd47f	0.00010577682
175	0xbb10a8c1	-0.0022073241
176	0x3a12bbd0	0.0005597444
177	0x3b0428af	0.002016585
178	0x39117a59	0.00013873856
179	0x3a1db715	0.0006016356
180	0xb9433b70	-0.00018618791
181	0xbb01785e	-0.0019755582
182	0xb9725a9a	-0.0002311267
183	0xba8a9595	-0.0010573143
184	0x39aad08b	0.00032580303
185	0xb9dbee9a	-0.00041948707
186	0x3a3dfd50	0.00072475243
187	0x3b0c4161	0.0021401274
188	0x3817706f	3.6105917e-05
189	0x3b22d6ae	0.0024847197
190	0xba281245	-0.0006411414
191	0xba6c1f8d	-0.0009007387
192	0xbd1513c5	-0.036395807
193	0xbd354ead	-0.044264484
194	0xbd20b69c	-0.03923665
195	0xbd07693f	-0.033059355
196	0xbc2e6068	-0.010643102
197	0xbcbcbefd	-0.023040289
198	0xbcf31d3a	-0.029677022
199	0xbc80d86c	-0.015728198
200	0xbc45ba28	-0.012068309
201	0xbc9502ac	-0.01818975
202	0xbd16193a	-0.03664515
203	0xbd0f501d	-0.03498851
204	0xbcf2447b	-0.02957367
205	0xbbb94858	-0.005654376
206	0xbd026068	-0.03183022
207	0xbcf68864	-0.030094333
208	0xbcec5cd2	-0.028852854
209	0xbd14b085	-0.036301155
210	0xbaefcb1d	-0.0018294785
211	0xbd0c8385	-0.034305114
212	0xbcf11d90	-0.029433042
213	0xbcfa5bdc	-0.03056138
214	0xbcfe581d	-0.031047875
215	0xbce47e36	-0.027892213
216	0xbbd7e38a	-0.006588404
217	0xbc447343	-0.011990371
218	0x391f85c2	0.0001521325
219	0xbb795cbe	-0.0038049663
220	0xbc665803	-0.01405907
221	0x3b66a58e	0.0035193893
222	0x3bedbf8b	0.0072554997
223	0x3ba72956	0.005101363
224	0xbab79d56	-0.0014008682
225	0xba01f22f	-0.00049570476
226	0xb9ab1bf5	-0.0003263649
227	0xba99aa26	-0.0011723682
228	0xba21392f	-0.00061501836
229	0x3a296f4a	0.0006463422
230	0x39a56121	0.0003154362
231	0xbab4f552	-0.0013806021
232	0x38dd1123	0.00010541293
233	0x39c630de	0.00037801912
234	0x3aa926d2	0.0012905246
235	0x3a3e527a	0.0007260215
236	0xba2d5264	-0.00066117034
237	0xba2ef3d7	-0.0006673908
238	0x39794ef8	0.00023775909
239	0xba75872d	-0.0009366151
240	0x39ce0071	0.0003929171
241	0xba6b4cf4	-0.00089760055
242	0x3a2e87ac	0.000665779
243	0x3a5d4c70	0.0008441871
244	0x39cadd7c	0.0003869346
245	0xba7fba46	-0.0009755235
246	0xba38796c	-0.0007037136
247	0x397c4de5	0.00024061611
248	0xbc95bfd7	-0.018279953
249	0xbcb0b8a4	-0.021572419
250	0xbca3a546	-0.01997627
251	0xbc844276	-0.016144972
252	0xbb91d157	-0.004450004
253	0xbc230241	-0.009949268
254	0xbc7b582f	-0.015340849
255	0xbbdab118	-0.0066739433

exp_avg_sq f4 [8, 56]
0	0x383eb17c	4.5464825e-05
1	0x385102e4	4.9832175e-05
2	0x383de301	4.5272525e-05
3	0x37c911a0	2.3969274e-05
4	0x382005a0	3.815221e-05
5	0x382f0bba	4.1734173e-05
6	0x37ce0c7d	2.4562929e-05
7	0x38275b19	3.9900744e-05
8	0x38391aff	4.413258e-05
9	0x385646a7	5.1087376e-05
10	0x3803c114	3.1412652e-05
11	0x383f9c74	4.5683657e-05
12	0x3801b235	3.0921965e-05
13	0x383fc2b8	4.5719295e-05
14	0x38179e43	3.6148598e-05
15	0x3828b2ef	4.0220966e-05
16	0x377e9397	1.5173943e-05
17	0x3838fb08	4.410281e-05
18	0x36030b55	1.9527117e-06
19	0x37862cdc	1.5994934e-05
20	0x37d9e1ea	2.5973615e-05
21	0x379c34fb	1.862132e-05
22	0x380aabcc	3.3061762e-05
23	0x380a8bcc	3.303196e-05
24	0x38ed88ee	0.00011326546
25	0x38fb466e	0.00011981731
26	0x38e11567	0.000107328226
27	0x38d2ab51	0.000100454905
28	0x38c5d20f	9.4328185e-05
29	0x3906fa31	0.0001287244
30	0x390a6a47	0.00013200297
31	0x389a4822	7.356728e-05
32	0x38891d98	6.538181e-05
33	0x390412f0	0.00012595556
34	0x384aff3f	4.839827e-05
35	0x38e4379b	0.000108822445
36	0x38b314e4	8.539276e-05
37	0x390ca807	0.00013414035
38	0x38d33f18	0.00010073016
39	0x38aedb2e	8.337792e-05
40	0x38c271fc	9.271872e-05
41	0x392a7b07	0.00016258295
42	0x39f844fc	0.00047353643
43	0x38b25b45	8.504702e-05
44	0x38fd5eb9	0.000120816236
45	0x38bf6693	9.126696e-05
46	0x38f13e25	0.00011503351
47	0x3905fd30	0.00012778188
48	0x394a7278	0.00019306864
49	0x393aaebd	0.00017803437
50	0x392c215b	0.00016415624
51	0x39238ddc	0.00015597738
52	0x3939facd	0.00017736405
53	0x393f294e	0.00018230567
54	0x392f4b61	0.00016717381
55	0x39364666	0.00017383098
56	0x340b4170	1.296919e-07
57	0x344c28e8	1.9013862e-07
58	0x347cec05	2.3555192e-07
59	0x344ef6cf	1.9275033e-07
60	0x34902718	2.6850535e-07
61	0x343d290e	1.7616932e-07
62	0x34bc3985	3.505958e-07
63	0x342504f1	1.536862e-07
64	0x345d2fac	2.0599572e-07
65	0x343d8c3b	1.7653012e-07
66	0x33e0fe8f	1.0477117e-07
67	0x3481a2db	2.4146615e-07
68	0x3437695e	1.7081535e-07
69	0x344c6c77	1.903844e-07
70	0x34190f3a	1.4254775e-07
71	0x34153c46	1.3898634e-07
72	0x33e9909d	1.0876213e-07
73	0x345f38e7	2.0789194e-07
74	0x33309849	4.1116696e-08
75	0x33d2224a	9.785124e-08
76	0x341f2266	1.4820543e-07
77	0x34928335	2.7290085e-07
78	0x34804267	2.3890172e-07
79	0x34186b8e	1.4195231e-07
80	0x35472fe2	7.4202956e-07
81	0x35a4e50b	1.2285612e-06
82	0x3587b2c5	1.0110313e-06
83	0x3577229b	9.206503e-07
84	0x34f23459	4.51141e-07
85	0x35810081	9.611396e-07
86	0x354ee86a	7.7079187e-07
87	0x35d26c36	1.5677713e-06
88	0x353f4bac	7.126316e-07
89	0x355bf986	8.194696e-07
90	0x35490812	7.489008e-07
91	0x35a9ca8b	1.2650429e-06
92	0x35d53c2e	1.5887251e-06
93	0x35ad36b3	1.2905424e-06
94	0x3595ffce	1.1175814e-06
95	0x35911556	1.0809551e-06
96	0x36204b9f	2.3885875e-06
97	0x357ec57e	9.490976e-07
98	0x36bdd894	5.657852e-06
99	0x3631f48a	2.6517396e-06
100	0x353ffc73	7.1520407e-07
101	0x35dd6adb	1.6496882e-06
102	0x358a959e	1.0325346e-06
103	0x3564755d	8.5107405e-07
104	0x361f208b	2.3711789e-06
105	0x362b9e68	2.557319e-06
106	0x3630f8b4	2.6370808e-06
107	0x3613a3e1	2.2000097e-06
108	0x361dbb2e	2.3503776e-06
109	0x3604b5df	1.9775396e-06
110	0x360d0e3f	2.101893e-06
111	0x36051bb3	1.9834667e-06
112	0x3751767b	1.2484957e-05
113	0x37508f76	1.2431168e-05
114	0x376085c3	1.3382584e-05
115	0x36d96d0f	6.4798e-06
116	0x37340714	1.0730484e-05
117	0x374f1516	1.2343071e-05
118	0x36d4720a	6.3313682e-06
119	0x3738f88c	1.1025124e-05
120	0x3739a2c7	1.1064759e-05
121	0x375cef30	1.3168712e-05
122	0x37167194	8.967141e-06
123	0x37508fcd	1.2431247e-05
124	0x3720a85f	9.575945e-06
125	0x3761a9f3	1.34506145e-05
126	0x3722905a	9.689562e-06
127	0x37589bb8	1.2910859e-05
128	0x369b2db7	4.624682e-06
129	0x37596542	1.2957784e-05
130	0x351b887a	5.79406e-07
131	0x3699ab06	4.579665e-06
132	0x3701edd6	7.744375e-06
133	0x36a75b48	4.9876144e-06
134	0x3715556b	8.90098e-06
135	0x37166d19	8.966098e-06
136	0x37bd732e	2.258419e-05
137	0x37e3e73e	2.716819e-05
138	0x380409eb	3.148049e-05
139	0x37baf5fc	2.2287473e-05
140	0x37970e39	1.8007226e-05
141	0x37fa52d7	2.9840898e-05
142	0x37cb73a3	2.4253333e-05
143	0x37892e64	1.6353275e-05
144	0x3757ec3a	1.2869999e-05
145	0x37d5139d	2.5400712e-05
146	0x3786bd3d	1.6062166e-05
147	0x3800496a	3.058595e-05
148	0x37a7b96f	1.99943e-05
149	0x37cc3138	2.4341614e-05
150	0x37b8a8df	2.2013146e-05
151	0x37c62616	2.3621174e-05
152	0x37b3fc5c	2.1455977e-05
153	0x38158832	3.565121e-05
154	0x38d216af	0.000100178055
155	0x37c58364	2.3545414e-05
156	0x37ce5117	2.4594874e-05
157	0x37b1cc9b	2.1195321e-05
158	0x37e3f632	2.7175152e-05
159	0x37cc1c33	2.4331826e-05
160	0x3844cde1	4.692178e-05
161	0x3822f383	3.8850598e-05
162	0x382aff7e	4.0769104e-05
163	0x380c9b60	3.3523305e-05
164	0x382e3fce	4.1544256e-05
165	0x383adb47	4.4550074e-05
166	0x382f0304	4.172606e-05
167	0x382dc75e	4.143209e-05
168	0x38bb395b	8.927538e-05
169	0x38d22e29	0.00010022178
170	0x38b57cbf	8.653988e-05
171	0x3867c1b1	5.525508e-05
172	0x38b7713a	8.74721e-05
173	0x38bbf66a	8.962753e-05
174	0x38813a9d	6.162117e-05
175	0x38958266	7.129162e-05
176	0x38b47bbc	8.606116e-05
177	0x389c6554	7.4575335e-05
178	0x3878ea7f	5.93462e-05
179	0x38adfbae	8.296162e-05
180	0x38883108	6.494118e-05
181	0x38abac0e	8.185963e-05
182	0x389c07d3	7.440117e-05
183	0x38b8d4cb	8.8134395e-05
184	0x3817930e	3.613816e-05
185	0x38af23e2	8.351334e-05
186	0x36ac4af8	5.134727e-06
187	0x381999fc	3.662145e-05
188	0x38767b77	5.8765956e-05
189	0x383bd764	4.4784872e-05
190	0x38869357	6.417062e-05
191	0x389a576e	7.359577e-05
192	0x39584909	0.00020626573
193	0x3975f1c4	0.00023455085
194	0x39470819	0.00018981136
195	0x39386f9e	0.00017589188
196	0x392b02b9	0.00016308845
197	0x398bb75b	0.00026648756
198	0x39751ec5	0.00023376483
199	0x39126606	0.00013961652
200	0x39154951	0.0001423706
201	0x3984ab65	0.000253047
202	0x38d0e366	9.960569e-05
203	0x3964d96e	0.00021824773
204	0x392b1f06	0.00016319388
205	0x39765655	0.0002349255
206	0x393f1f81	0.00018226916
207	0x391859d6	0.00014529316
208	0x392e4cda	0.00016622563
209	0x3990a8d3	0.00027591604
210	0x3a8a24f5	0.0010539579
211	0x392e758a	0.0001663772
212	0x39696dca	0.00022261511
213	0x39304800	0.0001681149
214	0x3940db6c	0.00018392288
215	0x398a66c9	0.00026397992
216	0x39d76aac	0.00041087472
217	0x39bf8725	0.0003653105
218	0x39b831ba	0.00035132264
219	0x39b2072e	0.00033956155
220	0x39c656e4	0.00037830241
221	0x39c93e09	0.00038383927
222	0x39bb03e9	0.00035670333
223	0x39b884fa	0.0003519429
224	0x37eaa32e	2.797096e-05
225	0x37eebc58	2.8459515e-05
226	0x37d90c0c	2.5874026e-05
227	0x377dca46	1.5127071e-05
228	0x37c6cb07	2.3697981e-05
229	0x37db5831	2.6147902e-05
230	0x378136a6	1.5403446e-05
231	0x37b44a55	2.1492286e-05
232	0x37df4744	2.6616857e-05
233	0x37d5957c	2.5461188e-05
234	0x3797c395	1.8091678e-05
235	0x37deb582	2.6548983e-05
236	0x37b447cf	2.149111e-05
237	0x37d206de	2.5037149e-05
238	0x37c8bdef	2.3930303e-05
239	0x37c86c12	2.3892182e-05
240	0x373a6c8c	1.1111737e-05
241	0x37d7800f	2.568963e-05
242	0x35927d2a	1.0914275e-06
243	0x37316f6c	1.0575965e-05
244	0x3794bf3d	1.7732027e-05
245	0x3751b8b3	1.2500374e-05
246	0x3796583a	1.7922477e-05
247	0x37b6f79c	2.1811393e-05
248	0x38781100	5.914364e-05
249	0x3882763e	6.2209074e-05
250	0x386e23c4	5.677693e-05
251	0x3868422b	5.5374734e-05
252	0x386cd921	5.6469e-05
253	0x389a2d41	7.3517214e-05
254	0x38984e70	7.262535e-05
255	0x383f1765	4.5559736e-05

exp_avg f4 [8]
0	0xba874b73	-0.0010322168
1	0xbb8d2904	-0.004307868
2	0xb9001666	-0.00012215375
3	0x3c696d2f	0.014247223
4	0x3c0031a8	0.007824339
5	0x3ba4fac1	0.005034775
6	0x3c7f2c83	0.015574577
7	0x3b125a03	0.0022331483

exp_avg_sq f4 [8]
0	0x3a556910	0.00081409607
1	0x370bc591	8.331045e-06
2	0x39461aa4	0.00018892676
3	0x3afab850	0.0019128416
4	0x3a393ed2	0.0007066551
5	0x3a397db9	0.0007075924
6	0x39efe377	0.00045755107
7	0x388dfaf1	6.7701454e-05

exp_avg f4 [8, 8]
0	0xbc7b1374	-0.015324462
1	0x39b30bf8	0.00034150458
2	0xbc9c188d	-0.019054675
3	0xbcafad59	-0.021444963
4	0xbc955ca6	-0.018232655
5	0xbc80eb4b	-0.015737196
6	0xbae30397	-0.0017319795
7	0x3afdfc2c	0.0019377521
8	0xbc502e7e	-0.012706397
9	0xba342340	-0.0006871708
10	0xbc9c6cac	-0.019094788
11	0xbcb4e687	-0.02208258
12	0xbc8d89de	-0.017277654
13	0xbc82ad1a	-0.015951682
14	0xbafd715c	-0.0019336152
15	0x3b0d9034	0.0021600844
16	0xbc69845a	-0.0142527465
17	0xbb21cca1	-0.0024688619
18	0xbc990ba2	-0.018682305
19	0xbcac7bd2	-0.021055136
20	0xbc8b3f6e	-0.01699802
21	0xbc735094	-0.014850754
22	0xbb9d6e55	-0.0048044124
23	0xbbea67a0	-0.0071534663
24	0xbd17c94d	-0.03705721
25	0xbba557c8	-0.0050458647
26	0xbd4c68f9	-0.049904797
27	0xbd6a8ab7	-0.057261195
28	0xbd39d826	-0.04537215
29	0xbd268820	-0.040657163
30	0xbc162eac	-0.009166401
31	0xbc2f7b60	-0.010710567
32	0xbd36b49c	-0.044605836
33	0xbb780efa	-0.0037850724
34	0xbd747178	-0.059678525
35	0xbd89748c	-0.06711683
36	0xbd6406e0	-0.05567062
37	0xbd451e15	-0.04812439
38	0xbc2739c8	-0.010206647
39	0x399ca163	0.0002987488
40	0xbd1655d2	-0.03670294
41	0x3a6820f4	0.0008855008
42	0xbd2e0e70	-0.042494237
43	0xbd4a44a8	-0.049381882
44	0xbd2e876d	-0.04260962
45	0xbd0b4efd	-0.034010876
46	0xbb94c4a7	-0.0045400443
47	0x3b579c6e	0.0032899636
48	0x3c960a4d	0.018315459
49	0x3b0ef1d3	0.002181162
50	0x3ca08ead	0.019599283
51	0x3ca83de4	0.020537324
52	0x3ca1dd16	0.019758742
53	0x3c81e559	0.015856432
54	0x3c2f412c	0.0106966905
55	0x3ba21044	0.0049457867
56	0x3bb10846	0.0054025976
57	0x395d0f57	0.00021081917
58	0x3bd006f5	0.0063484856
59	0x3bde63a9	0.0067867828
60	0x3bbffb81	0.005858839
61	0x3bb28ce8	0.0054489262
62	0x3a068331	0.00051312434
63	0xb9d3eaa1	-0.00040419868

exp_avg_sq f4 [8, 8]
0	0x37fb9b33	2.9993802e-05
1	0x35dca0a7	1.6438033e-06
2	0x37d45202	2.5310557e-05
3	0x386cadab	5.6428526e-05
4	0x3851cbec	5.00194e-05
5	0x37e6ecf1	2.7528471e-05
6	0x3708196d	8.112152e-06
7	0x37606208	1.3374265e-05
8	0x3800bbd7	3.0692518e-05
9	0x36192f5f	2.282635e-06
10	0x37a8e556	2.0133954e-05
11	0x381b5503	3.7034053e-05
12	0x37fc0d76	3.004701e-05
13	0x3795857a	1.7824339e-05
14	0x36effcf8	7.1522045e-06
15	0x375048e4	1.2414737e-05
16	0x37b8a773	2.2012484e-05
17	0x35d0a9b0	1.5546593e-06
18	0x37a27c9a	1.9369927e-05
19	0x3817bdbe	3.6177917e-05
20	0x3814e5d6	3.55e-05
21	0x37862a1e	1.5993657e-05
22	0x3696a382	4.489383e-06
23	0x36b8f2d6	5.511897e-06
24	0x39393447	0.0001766245
25	0x37093e8a	8.180397e-06
26	0x393d6e47	0.00018065526
27	0x39cab410	0.000386626
28	0x398d8536	0.00026992866
29	0x392bd772	0.0001638809
30	0x37ceee44	2.4668065e-05
31	0x3826a94a	3.9735147e-05
32	0x39a37a62	0.00031180965
33	0x3788ff71	1.6331413e-05
34	0x3971cfaf	0.00023060919
35	0x3a019f96	0.00049447396
36	0x39df0043	0.0004253407
37	0x396c6ac3	0.00022546486
38	0x38bf73a9	9.129133e-05
39	0x38da40fc	0.00010407154
40	0x38dde08a	0.00010579925
41	0x358dd314	1.056675e-06
42	0x38e2aefb	0.000108091124
43	0x39494422	0.00019194235
44	0x392b981f	0.000163645
45	0x38a91075	8.061613e-05
46	0x36803032	3.820308e-06
47	0x37b02d3b	2.1001897e-05
48	0x389b7331	7.412432e-05
49	0x3743fc6a	1.16816755e-05
50	0x381c445c	3.7256963e-05
51	0x38948357	7.081654e-05
52	0x38e44899	0.000108854096
53	0x37e47237	2.7232903e-05
54	0x391c3b3c	0.00014899386
55	0x38317a9f	4.231429e-05
56	0x37a680f4	1.984879e-05
57	0x3524d002	6.139745e-07
58	0x371c84d0	9.329247e-06
59	0x37cfd6e8	2.4776396e-05
60	0x37e50d11	2.7305012e-05
61	0x3762ae73	1.3511267e-05
62	0x3619f159	2.293926e-06
63	0x36a45c52	4.8983284e-06

exp_avg f4 [8]
0	0xba6ccf93	-0.00090336165
1	0xba891052	-0.0010457134
2	0xbc7b9d9c	-0.015357401
3	0xbcfa7c43	-0.03057683
4	0xbcb877df	-0.022518096
5	0xba53d74c	-0.0008081093
6	0x3c7dbd5a	0.015487039
7	0x3b0187d7	0.0019764805

exp_avg_sq f4 [8]
0	0x38f82db0	0.000118340715
1	0x38ea58b6	0.00011174513
2	0x38a0ed2f	7.6735734e-05
3	0x3a0d83e1	0.00053983746
4	0x3a9ceb64	0.0011972007
5	0x3908da0b	0.00013051198
6	0x39e6d5a6	0.000440282
7	0x380dfdaf	3.385328e-05

exp_avg f4 [8, 8]
0	0xbb4e9897	-0.0031524056
1	0xbae9e3e3	-0.0017844405
2	0xbb15b68c	-0.0022844402
3	0xbaaa77b0	-0.001300564
4	0xbb1921bf	-0.0023366062
5	0xbaf8ff1b	-0.0018996926
6	0xb81e7391	-3.7777765e-05
7	0x3a1b5284	0.00059250765
8	0x3c11dac2	0.008902254
9	0x3bc96734	0.006146336
10	0x3c0e8183	0.00869787
11	0x3bc2f693	0.005949804
12	0x3be0cd71	0.006860428
13	0x3bae46f4	0.005318517
14	0x3ac1927a	0.0014768385
15	0x3b245333	0.0025074005
16	0xbc988e8f	-0.018622665
17	0xbc57f084	-0.013179902
18	0xbc9181bc	-0.017762057
19	0xbc58840f	-0.013215079
20	0xbc74b9ac	-0.014936846
21	0xbc64b819	-0.013959908
22	0xbac36de4	-0.0014910069
23	0xbb53e2fc	-0.0032331338
24	0xbdb6f93c	-0.089342564
25	0xbd8100c7	-0.062989764
26	0xbdaca0d5	-0.08429114
27	0xbd7a2a97	-0.061075773
28	0xbd91c0e4	-0.07116869
29	0xbd87ca06	-0.0663033
30	0xbc099559	-0.008397424
31	0xbc487d96	-0.012236973
32	0xbd72e39c	-0.059299096
33	0xbd27cd02	-0.040966995
34	0xbd594cf2	-0.053051896
35	0xbd1114c7	-0.035420205
36	0xbd3f9b55	-0.046778996
37	0xbd32691a	-0.043557264
38	0xbba8e819	-0.0051546213
39	0x39f71955	0.00047130385
40	0xbcea5fb8	-0.028610095
41	0xbc9ec764	-0.019382186
42	0xbcd10cbe	-0.025518771
43	0xbc911262	-0.01770896
44	0xbcb52227	-0.022111012
45	0xbca7b7c3	-0.020473367
46	0xbb7a7202	-0.0038214927
47	0xbb5bfccc	-0.0033567427
48	0x3c7abe5e	0.015304176
49	0x3c2e17ab	0.01062576
50	0x3c76aa48	0.015055247
51	0x3c18935b	0.009312476
52	0x3c377205	0.011196618
53	0x3c0ea2d5	0.008705814
54	0x3b9ba232	0.00474956
55	0x3b7a32ef	0.0038177331
56	0x394c2a61	0.00019470743
57	0xb8240f51	-3.911491e-05
58	0xb987b586	-0.00025884452
59	0xb9390712	-0.00017645609
60	0x390a531e	0.00013191669
61	0x39261dd9	0.00015842113
62	0xb8fa484f	-0.000119343975
63	0xb8a66407	-7.9341284e-05
